main/module/ai_model/classifier.pth (torch, 958955 bytes, 12 tensors)

fc1.weight f4 [100, 784]
000000 b9 fe 48 bd 10 b3 84 bd 56 d5 1f 3d 72 dd 77 3d
       -0.049071047 -0.06479466 0.039021812 0.06051392
000010 eb 5a 98 bc 5e d1 6e 3b 02 5b a2 bd 40 2a 83 be
       -0.01859804 0.003644071 -0.079275146 -0.25618172
000020 e5 41 7c 3d 46 01 cb be 8c 22 fb be 3e 62 a5 be
       0.06158628 -0.3964941 -0.49049795 -0.32301515
000030 e8 91 50 be 70 1c 36 3d c3 74 ed 3e da 71 7f bd
       -0.20368159 0.044460714 0.46378145 -0.062364437
000040 de 99 a2 3e c6 83 b8 3d c1 dd b5 3d 33 f8 a8 3d
       0.31758016 0.09009509 0.08880187 0.08250465
000050 d4 37 68 3d 47 e6 20 be 55 14 ba bd 33 b5 34 3d
       0.056693867 -0.15712844 -0.09085909 0.044118118
000060 46 2b da 3c 98 af 23 bc 9a 45 b0 bc d1 f8 b4 bb
       0.026631963 -0.009990595 -0.021517564 -0.0055228253
000070 48 da 87 3d 91 ae 3b bc 2e b7 8d bd 19 df 05 be
       0.06633431 -0.011455194 -0.069197044 -0.13073386
000080 56 28 29 bd 74 e3 8d bd 2b 73 8f 3d e1 d1 16 be
       -0.041298233 -0.06928149 0.070043884 -0.147285
000090 ba df 99 be 03 da 84 bd d2 68 76 bf 2d 25 8a be
       -0.30053502 -0.06486895 -0.96253693 -0.26981488
0000a0 03 16 5d be 64 66 85 3f 0d 5f 92 3f 7a 30 4e 3f
       -0.21590428 1.0421872 1.1435257 0.8054272
0000b0 4d af 8f 3e 17 41 d5 be 87 7b 60 be f2 6e 88 be
       0.2806343 -0.41651222 -0.21922122 -0.26647145
0000c0 28 15 98 bd 9b 83 91 be 5a ce 81 bd 1a 89 bb bd
       -0.0742591 -0.2842072 -0.063381866 -0.091570094
0000d0 37 1c 6c bd 26 59 51 bd aa 7d 4c 3c 53 79 ca bc
       -0.057644095 -0.05111041 0.0124811325 -0.024716055
0000e0 c6 19 9a 3d 58 14 7c 3d 35 b8 11 bd 77 95 ee bc
       0.07524447 0.06154284 -0.035576064 -0.029124005
0000f0 8d a1 77 3d 1b 89 d8 bd 46 88 23 be ea b9 f4 be
       0.0604568 -0.10573026 -0.15969953 -0.4779809
000100 22 41 ad be b8 47 13 bf ff 56 66 bf 57 15 68 bd
       -0.33838755 -0.5753131 -0.89976496 -0.056660976
000110 6b 14 5e 3f 7b 7f 67 3f 76 8c 64 3f 32 eb 1a 3f
       0.86749905 0.90428895 0.89276826 0.6051513
000120 37 4f 70 3f 8d e9 93 3e 66 45 d7 3d 8d 25 8e be
       0.9387087 0.28889123 0.105112836 -0.27763024
000130 0d dc 97 be 6c 98 93 be 97 1d 89 bd f1 2b 35 be
       -0.29660073 -0.28827226 -0.06695097 -0.17692544
000140 80 86 c5 bd 51 d3 ac bc 88 b0 5f 3d f0 97 58 3d
       -0.096447945 -0.021096857 0.054611713 0.052879274
000150 58 48 1c bd 01 b1 f6 3a d1 ce 3f bd 2b 79 56 bc
       -0.03815493 0.0018821062 -0.046828095 -0.013090412
000160 98 9b 1f bd f6 df c2 bd 26 9d 6f be 7e 70 e6 be
       -0.038966745 -0.095153734 -0.23399791 -0.450077
000170 28 b0 d8 be e4 d0 5d bf 8c 1b 3c bf 37 ab 3f be
       -0.42321897 -0.86646867 -0.73479533 -0.18717657
000180 3d 0c 4e 3e 97 04 51 3e 75 4e 60 3e dd 32 83 be
       0.20121856 0.20411907 0.21904929 -0.25624743
000190 01 4f ca 3e b9 ef 38 3e 0f 97 ec 3e b9 cf ba be
       0.395134 0.18060197 0.46209 -0.36486605
0001a0 40 05 c3 be 21 4f a0 be 63 28 89 be ea 9c 33 be
       -0.38089943 -0.3131037 -0.26788625 -0.17540327
0001b0 55 87 0c be 68 8b 80 bd 31 0f 95 bd 78 31 ad 3d
       -0.137235 -0.0627659 -0.07278288 0.08456701
0001c0 30 bc 35 bd 6d 92 25 be c7 65 c2 bc e8 85 89 ba
       -0.044368923 -0.16169138 -0.023730172 -0.0010492178
0001d0 ca bb 1f 3e 88 ec 04 bf 6a b3 1d bf ff 1a 5f bf
       0.1559898 -0.5192342 -0.6160189 -0.8715057
0001e0 c0 f6 81 be f2 55 68 bf 1b 21 21 bf c6 11 d1 3d
       -0.25383568 -0.9075614 -0.6294114 0.10208468
0001f0 7a 87 f5 be fe 4b e7 be 39 8c b9 bd fe 54 c5 be
       -0.47954923 -0.45175165 -0.090599485 -0.38541406
000200 17 0c 62 3d 63 a9 9c bc 57 28 39 3e 2d 8d da 3d
       0.05518731 -0.019123739 0.18081795 0.106714584
000210 4b 38 b2 be 2f 1b a5 be 62 99 23 3d f8 8f 93 bd
       -0.34808573 -0.32247302 0.0399412 -0.07205194
000220 e5 57 1a be a6 dc 8b 3d 4c 20 1a bd a8 2c 6c 3d
       -0.15072592 0.06829195 -0.037628457 0.057659775
000230 0e 0e 51 bd cd cf 46 bd ce c7 31 bd 65 06 33 3e
       -0.051038794 -0.048538018 -0.04340344 0.17482908
000240 ec d8 1b bc 27 48 e9 be 9e ef 5e bf d0 c8 df be
       -0.009512167 -0.4556286 -0.87084377 -0.43707895
000250 38 22 19 bf a8 8a 7d bf 32 2b ac bf c4 37 28 bf
       -0.5981784 -0.990397 -1.3450682 -0.6571009
000260 97 8c 93 bf 7b fd fb be 58 bc 58 be cf 3d bd be
       -1.152728 -0.49216828 -0.21165597 -0.3696122
000270 d4 cd f6 3d 2a 93 1b 3f 3e f1 0f 3f 2a 8b 81 3d
       0.12050977 0.6077143 0.5622748 0.063253716
000280 55 63 df bd 00 a9 01 3d 92 40 35 3e 86 48 04 3f
       -0.10907618 0.03165531 0.17700413 0.5167316
000290 b6 4a c2 bd d1 99 a4 3d 0a 28 36 bd e7 47 16 bc
       -0.09486906 0.08037151 -0.044471778 -0.009172416
0002a0 43 9e e2 bc 42 b8 3b be 69 e9 d4 3d 9e e0 09 3e
       -0.027663356 -0.18332008 0.10396082 0.13464591
0002b0 62 03 e9 bd 93 af 48 bf db e1 43 bf 65 25 1b bf
       -0.11377598 -0.78392905 -0.76516503 -0.60603935
0002c0 f5 19 43 be af 71 44 bf e9 0c 2c bf 0c bd bf be
       -0.1905287 -0.7673597 -0.672072 -0.3744892
0002d0 df 08 86 bf 7e fd 7b 3d 39 a6 32 bc c8 ad df be
       -1.0471457 0.061521046 -0.010903888 -0.43687272
0002e0 59 61 0b bf e3 e3 4e 3e c7 63 ac bd 26 23 9a be
       -0.54445416 0.2020412 -0.084174685 -0.3010494
0002f0 36 53 07 bf b0 2d 09 3d 31 7e 05 3e ce 0b 12 bc
       -0.52861345 0.033490837 0.1303642 -0.008913947
000300 15 84 37 bd 90 3b 98 3c 34 94 76 bd 28 8e 94 bd
       -0.044803698 0.01858309 -0.06019993 -0.07253677
000310 af 8c 02 3c 03 66 96 bd 7b e3 20 3e 9a 6a 4b 3e
       0.007968112 -0.07343676 0.15711777 0.19864884
000320 a6 81 32 bd 0f f9 44 bf 3a 02 62 bf e5 3a 56 bf
       -0.043580674 -0.76942533 -0.8828465 -0.83683616
000330 96 f6 45 bc 78 c7 c5 be fb 97 02 bf 84 f5 5b bc
       -0.012082716 -0.38628745 -0.51013154 -0.013425235
000340 d0 28 8f bf cb 8e 65 be 6a e0 b6 3d 3d d4 1e be
       -1.118433 -0.22417752 0.08929522 -0.1551065
000350 0c 7d 9d bf 67 bf 26 bf b6 b6 6d 3d 47 2e 52 be
       -1.2303786 -0.65135807 0.058035575 -0.20525466
000360 4d 6b 26 bf a5 82 5d 3d c0 a2 7f bc 82 49 c3 be
       -0.6500748 0.05407967 -0.0156027675 -0.3814202
000370 4a 01 9e be 12 61 91 bc 2d 42 77 bd fa 1d 0c 3b
       -0.30860358 -0.017746482 -0.060365845 0.0021380172
000380 49 c8 d8 bc 3b 13 52 bd 48 60 e0 3d 2c 6c a2 3e
       -0.02646269 -0.05128787 0.10955864 0.31723154
000390 20 cf 98 be f8 db 21 bf 14 0f 14 bf b6 83 8f 3d
       -0.29845524 -0.6322627 -0.5783551 0.07007544
0003a0 07 c3 3a bd a7 24 bf 3e e8 f8 81 3d aa 75 80 3e
       -0.04559615 0.3733265 0.06346303 0.2508977
0003b0 57 89 64 bf 0e 64 40 bf ee ea 3b bd 51 73 8e 3d
       -0.89272064 -0.7515267 -0.045878343 0.069555886
0003c0 c6 e9 dd bf ad d5 13 bf 38 1b 10 bd 56 98 cf be
       -1.7336967 -0.5774792 -0.035182208 -0.4054591
0003d0 d0 08 16 bf fe 4a 36 be de 5d dd bc d6 00 8b be
       -0.58607197 -0.17802045 -0.027022298 -0.27149075
0003e0 a8 d8 a9 be c5 a6 3e bd ab 9d 05 3d 1c e7 33 3d
       -0.33173108 -0.046545763 0.032621067 0.043921575
0003f0 ee 05 0c bc d7 85 21 3d dd ce cd 3e 14 68 7a 3e
       -0.008546336 0.03943428 0.40196887 0.24453765

fc1.bias f4 [100]
000000 9f 1b 7e bf f1 fb cf bf e9 80 70 bf 13 bd 8a 3f
       -0.99260896 -1.6248761 -0.939467 1.0838951
000010 3d c0 12 40 1b 1e 11 c0 bd 6b d9 bf 0c c8 80 bf
       2.2929833 -2.2674625 -1.6986004 -1.006105
000020 78 89 08 bf d7 f9 e6 be 33 82 0c 40 60 b1 91 bf
       -0.5333476 -0.45112488 2.1954467 -1.1382256
000030 b4 4e 65 3f ef 70 da 3f 48 07 18 c0 06 f9 2f 40
       0.89573216 1.7065715 -2.3754444 2.7495742
000040 2d 3d 13 be c1 cf 3b 3d 3b 12 34 c0 0b 05 6c 3f
       -0.14378805 0.045852426 -2.8136127 0.92195195
000050 d3 4f d7 3e 56 3e 0f bf 59 73 0a be 2f 1d 5d bd
       0.4205309 -0.5595449 -0.13520564 -0.05398291
000060 e0 8c bc bf 6d 83 98 be 8d 77 49 bd 29 58 01 be
       -1.4730492 -0.2978777 -0.049186278 -0.12631287
000070 32 4d 48 3f 8d 1c 4a c0 e7 0b 9b bd 40 1d 42 bf
       0.7824279 -3.1579926 -0.075706296 -0.7582588
000080 f7 71 0e c0 e4 f4 3e 40 a1 19 6b 3f c0 62 5d bd
       -2.2257059 2.983697 0.9183598 -0.054049253
000090 b4 dd 1d 3f 18 47 39 c0 e9 6e 6b 40 29 2c 2a 40
       0.6166642 -2.8949642 3.6786444 2.6589453
0000a0 b8 97 c5 bf 68 2c 6e 3f cc a0 b0 bf 38 a8 8f c0
       -1.5436926 0.9303651 -1.3799071 -4.4892845
0000b0 93 01 9b c0 05 8c 99 3f 8d 46 f1 bf c5 92 b1 be
       -4.843942 1.1995856 -1.8849655 -0.3468229
0000c0 87 60 b3 bf 4b 89 0a 3f 1f d4 1d 40 ea aa 87 3f
       -1.4013833 0.5411574 2.4660718 1.0599034
0000d0 16 d5 2b c0 4f 7d c7 3f 22 bd 9f 3c d7 c6 aa bf
       -2.6848807 1.5585116 0.019499365 -1.3341931
0000e0 3c 2b 86 40 70 8b b1 bd 3e 07 3c bd 4c 15 7c 3c
       4.1927776 -0.08669174 -0.045905344 0.015385937
0000f0 6a 94 37 40 8d e5 67 bf 03 44 39 40 71 bb 6c be
       2.8684335 -0.9058464 2.894776 -0.23118378
000100 1f 9f fa 3f cb 8d 48 3f 23 02 e8 3f ac 1b f4 3f
       1.957981 0.7834136 1.8125652 1.9070945
000110 38 9f 1a bd 20 e2 10 c0 a0 be cc be 6f c6 bd 3e
       -0.0377495 -2.2638016 -0.39989185 0.37065455
000120 8c 16 b1 bf 84 76 43 40 a3 b6 80 bf 4e 1b 86 be
       -1.3835006 3.0541086 -1.0055736 -0.26192707
000130 6d 8d 2d bf 40 85 8c bd b0 ae 66 bd 48 29 af bf
       -0.67793924 -0.06861353 -0.05631894 -1.3684473
000140 bf c2 0a c0 f3 a4 a3 be 41 75 6b bf 48 73 2f bf
       -2.1681364 -0.31961784 -0.9197579 -0.6853528
000150 11 92 4d bf 3c f5 69 be 00 f2 bd bf c6 62 5d bd
       -0.80301005 -0.22847456 -1.4839478 -0.054049276
000160 d2 14 01 3f 73 af a5 3e e4 d7 e5 3e 23 3d 19 c0
       0.50422394 0.3236042 0.44891274 -2.3943565
000170 ca 77 a9 3f b3 f4 c8 be 5e c2 46 c0 c0 b4 2d bf
       1.3239682 -0.3924919 -3.1056132 -0.6785393
000180 33 a8 29 40 8a 50 ae bf bb c5 67 c0 33 e7 21 3f
       2.650891 -1.3618329 -3.6214435 0.63243407

fc2.weight f4 [10, 100]
000000 f0 9f b6 be f5 a7 19 c0 09 45 c1 bf c7 67 31 c0
       -0.35668898 -2.4008763 -1.5099193 -2.771959
000010 51 af db bf 81 63 e1 be 66 65 a7 bf 8f 55 58 3f
       -1.7162877 -0.44021228 -1.3077819 0.8450555
000020 51 2a 59 be ee d0 dd be fd b0 84 bf 10 02 d4 3e
       -0.21207549 -0.43323463 -1.0366513 0.41407824
000030 65 81 ba 3f 95 5b bd bf 3b b7 27 bf 9e 35 75 bf
       1.4570738 -1.4793574 -0.6551396 -0.9578494
000040 8f 1e 51 bc 4a 49 0e c0 a4 cb a4 3f 0b dc 0e 3f
       -0.012763633 -2.2232232 1.2874646 0.5580451
000050 45 0f 0c bf 14 8f be 3e 6d be c9 3c 98 20 58 3d
       -0.547108 0.37218535 0.024626935 0.05276546
000060 db f1 78 3e 99 5c 9d bf 5a cd c5 3d 90 ae e5 bf
       0.2431101 -1.2293884 0.09658308 -1.7943897
000070 d9 be 1c bc fc 68 ab bf 69 63 8c bd 2c ad ce bd
       -0.009566986 -1.3391414 -0.068548985 -0.10091624
000080 c4 53 c2 bf b1 2a 50 3e ef b3 d6 3f 99 ad 67 be
       -1.5181813 0.20328785 1.6773661 -0.22624816
000090 cf 86 b8 bf e0 dd b8 bf 68 23 85 bf fe 30 2c 3f
       -1.441614 -1.4442711 -1.040143 0.67262256
0000a0 46 30 2b bf 60 53 bc bb ae 8e 68 bf 28 51 9c 3f
       -0.66870534 -0.0057472438 -0.9084271 1.2212267
0000b0 0d e2 23 3f d7 68 20 c0 3b aa a5 3f 49 7d 50 bf
       0.640168 -2.506399 1.2942575 -0.8144117
0000c0 2e 5a 2e bf 5d 43 6d bf 4d db 88 bf 42 2f 90 3f
       -0.68106353 -0.92680913 -1.0691925 1.1264422
0000d0 4e 36 bf 3f 12 7c e8 bf 03 2c 8b 3f 7b 1e df 3e
       1.4938447 -1.8162863 1.0872806 0.43577942
0000e0 44 2a 31 3f 8f 10 6e be ee 1c 88 bd ba b1 52 3f
       0.6920512 -0.23248504 -0.06646143 0.8230244
0000f0 44 20 23 bf 62 43 1d be 64 36 b0 bf 48 3d 86 bf
       -0.6372111 -0.15357736 -1.3766599 -1.0487452
000100 ca 6d d2 bf 00 d0 ea bf f2 e3 44 3f ca 30 8b c0
       -1.6439755 -1.8344727 0.76910317 -4.3497057
000110 a9 1b e9 be 14 e9 85 be 93 65 e0 3d 80 da ca 3f
       -0.45528916 -0.26154387 0.10956874 1.5847931
000120 82 82 d5 3e 55 f0 b9 3e 09 ab bf bf 33 b9 b7 bf
       0.41701132 0.3631617 -1.4974071 -1.4353393
000130 96 b8 c4 bf e9 ef 73 bc e1 f0 af 3d e9 a6 32 bf
       -1.5368831 -0.014888742 0.08590866 -0.69785935
000140 ed c0 1b c0 65 2a fc be e2 f5 4c 3f 44 87 f0 3c
       -2.4336503 -0.49251094 0.8006269 0.029361375
000150 3a 0e 19 3f e1 84 4a bf b8 1b 8a bf 84 7a 39 bd
       0.59787333 -0.7910901 -1.0789709 -0.045282856
000160 b0 59 94 bf 63 f6 14 c0 bb f6 29 c0 f8 37 97 bf
       -1.158987 -2.3275383 -2.6556842 -1.1813955
000170 84 32 1a bf 2b b8 28 bf d4 c2 c6 3f 89 e2 2e bf
       -0.6023333 -0.6590602 1.5528207 -0.68314415
000180 7e 16 ef be e7 9c b4 3f 23 69 f8 bf 81 bc 07 bf
       -0.46696848 1.4110383 -1.9407085 -0.5302201
000190 14 c5 43 bf a1 76 c8 3e 30 a2 60 bf a3 82 89 bf
       -0.7647259 0.39153007 -0.8774748 -1.0742992
0001a0 01 a3 17 c0 61 b7 bb be b6 dd 9d bf d5 a4 8c 3e
       -2.369324 -0.36663345 -1.2333286 0.27469507
0001b0 f6 95 4f be 82 ec 75 3f fe c3 8c bf 0a d9 f4 be
       -0.2027205 0.9606401 -1.0997312 -0.47821838
0001c0 c4 12 d1 bf 94 ca 31 be 98 0f b8 3e 05 5c c4 3f
       -1.6333852 -0.17362434 0.35949397 1.5340582
0001d0 68 6a 7c 3e a6 66 24 be bb 50 10 bf d3 7f 4b bf
       0.24649966 -0.16054782 -0.56373185 -0.7949192
0001e0 d2 9d ac 3f 59 6f b1 bf 14 51 b9 3d 38 b0 05 3e
       1.3485663 -1.3862106 0.090486676 0.13055503
0001f0 da 60 94 bd 78 8f 1b 3f a9 c2 15 3e 8f c3 b0 3f
       -0.072450355 0.6076579 0.14625038 1.380968
000200 db e7 d2 3c c7 e4 e2 bf 18 c3 58 be 95 31 ce be
       0.025745323 -1.7726067 -0.21168172 -0.40272203
000210 9d 0d 77 bf 8e 54 9e 3f 7e 7e eb be f1 f4 9b 3c
       -0.9650515 1.2369554 -0.45994943 0.019037696
000220 b2 f9 95 bf 9a 39 4b 3e 02 46 69 bf 2a 1f 1b 3f
       -1.1716826 0.19846192 -0.9112245 0.6059443
000230 9c d6 39 3f b8 cd 01 bf 39 75 28 bd f7 38 11 be
       0.7259309 -0.50704527 -0.041127417 -0.14181887
000240 b2 21 38 bf af 85 58 bf 9e 55 a7 bd 2b 09 41 bf
       -0.71926415 -0.84578985 -0.08170627 -0.75404614
000250 71 a1 9b bf 5c 9d c7 3c 6d 12 c8 bf 54 12 05 c0
       -1.2158643 0.024367027 -1.5630623 -2.0792437
000260 58 18 28 bf f9 75 dd bf b3 d3 3b bf db c8 fc 3f
       -0.65662146 -1.7301627 -0.733699 1.9748796
000270 56 2e 0a 40 70 ef b1 3c 02 4e 9e 3d 31 67 ec 3e
       2.1590781 0.021720618 0.077297226 0.4617248
000280 c3 05 ab 3f 02 98 95 be cb 74 e5 3e 78 78 49 3f
       1.3361133 -0.29217535 0.44815668 0.78699446
000290 88 7f 5b 3f 05 0e 17 40 e5 04 61 be 7d 3d a5 3f
       0.8574147 2.3602307 -0.21974523 1.290939
0002a0 29 fa 08 3f 76 a6 dd 3f 49 1f 8d bd a8 df 3b 3f
       0.53506714 1.7316425 -0.06890733 0.7338815
0002b0 83 56 fc be e4 09 8d 3f 99 69 bb be 29 55 61 be
       -0.49284753 1.1018643 -0.36604002 -0.22005142
0002c0 1a f4 82 3f 0b d4 2a bc a8 6b 1f 3e c3 81 8f 3f
       1.0230744 -0.010426532 0.15568411 1.1211475
0002d0 4d 3b bb 3f fb fe aa 3f a8 f1 b1 bf 1e a3 f9 be
       1.4627472 1.3359064 -1.3901873 -0.4875726
0002e0 12 82 4f 3e 3a 3d 3a bf da 8c aa 3d ac 16 94 be
       0.20264462 -0.72749674 0.083276466 -0.28923547
0002f0 53 15 b2 bf be 15 ce be 21 d4 d0 3e 4a 84 fc 3d
       -1.3912758 -0.40250963 0.40786842 0.1232992
000300 65 3b 08 40 94 01 d8 be 49 f7 83 bf a6 42 8d bf
       2.1286252 -0.42188704 -1.030984 -1.1035964
000310 8b 46 51 be 33 98 c6 bf 52 03 f0 bf f6 34 1c c0
       -0.20437066 -1.5515198 -1.8751013 -2.4407325
000320 6c ab 90 be ec 3f c7 3e 94 cd 28 bf b3 b2 c5 bf
       -0.28255785 0.38915956 -0.6593869 -1.544516
000330 56 0b bb bd 00 e8 5c bf ca a5 00 40 16 d8 96 bf
       -0.091330215 -0.86291504 2.010119 -1.1784694
000340 85 7c 85 3f e7 08 14 3f 67 16 91 bf 7d a2 94 be
       1.0428625 0.57826084 -1.1334962 -0.2903022
000350 4f 0b 02 c0 99 0c c6 be 40 8e f8 be be 1e e4 3c
       -2.0319402 -0.38681486 -0.48546028 0.02784669
000360 26 8d 3f 3e 48 b8 33 3f 5d c2 96 3f 18 7b 10 c0
       0.18706188 0.70203066 1.1778065 -2.257513
000370 6e 08 e1 3f 0d ec 96 bf d7 b0 71 be e2 bc 97 3d
       1.7580698 -1.1790787 -0.23602615 0.074090734
000380 60 b2 84 3e 79 ef c4 3f 27 85 36 bd 67 cc 92 3f
       0.2591734 1.5385581 -0.044560578 1.1468629
000390 e3 73 69 be ce ca fe bf 4c 74 1b be 8b 37 38 be
       -0.22798114 -1.9905641 -0.15181082 -0.17989938
0003a0 4f 2b cc 3f d3 f6 25 c0 3d 81 00 3c c2 55 7b be
       1.5950717 -2.59319 0.007843313 -0.24544433
0003b0 ca 2e 2d c0 24 26 80 bf 19 52 f2 bf ae 99 3e c0
       -2.7059808 -1.001164 -1.8931304 -2.9781299
0003c0 19 43 f3 be 66 a6 e0 bf 24 4f 1c 3f d4 63 5d be
       -0.4751213 -1.7550781 0.6105826 -0.21620113
0003d0 13 3a af 3e 5d c2 c5 bf 31 50 a5 bf e9 d9 23 be
       0.34223995 -1.544994 -1.2915097 -0.16001095
0003e0 0b ef 00 c0 03 45 cc bf fb c0 18 bf 2d 3b be 3e
       -2.01459 -1.5958561 -0.59669465 0.37154523
0003f0 77 96 e2 bf 78 e6 e8 bf f1 0d c1 3f 14 c4 85 3e
       -1.7702168 -1.8195333 1.508238 0.26126158

fc2.bias f4 [10]
000000 2e a3 f4 bf 68 77 8e 3e 52 8f 24 c0 f0 7a 15 c0
       -1.9112298 0.27825475 -2.5712476 -2.3356285
000010 70 31 5c 3e 5c 6b c2 40 ae 5d 73 bf da d9 9b 3f
       0.21503234 6.0756054 -0.9506482 1.2175858
000020 2f 09 0a 40 d6 1e 4a c0
       2.1568105 -3.158132

exp_avg f4 [100, 784]
000000 00 00 00 00 00 00 00 00 00 00 00 00 04 00 00 80
       0.0 0.0 0.0 -6e-45
000010 04 00 00 00 04 00 00 00 04 00 00 00 04 00 00 00
       6e-45 6e-45 6e-45 6e-45
000020 04 00 00 00 04 00 00 80 04 00 00 00 04 00 00 00
       6e-45 -6e-45 6e-45 6e-45
000030 04 00 00 80 04 00 00 80 04 00 00 80 04 00 00 80
       -6e-45 -6e-45 -6e-45 -6e-45
000040 04 00 00 00 04 00 00 80 04 00 00 00 04 00 00 00
       6e-45 -6e-45 6e-45 6e-45
000050 04 00 00 00 04 00 00 80 04 00 00 00 04 00 00 00
       6e-45 -6e-45 6e-45 6e-45
000060 00 00 00 00 00 00 00 00 00 00 00 00 00 00 00 00
       0.0 0.0 0.0 0.0
000070 00 00 00 00 04 00 00 80 04 00 00 80 04 00 00 80
       0.0 -6e-45 -6e-45 -6e-45
000080 04 00 00 80 04 00 00 80 04 00 00 00 04 00 00 00
       -6e-45 -6e-45 6e-45 6e-45
000090 04 00 00 00 04 00 00 00 04 00 00 00 04 00 00 00
       6e-45 6e-45 6e-45 6e-45
0000a0 04 00 00 80 04 00 00 80 04 00 00 80 04 00 00 80
       -6e-45 -6e-45 -6e-45 -6e-45
0000b0 04 00 00 00 04 00 00 00 04 00 00 00 04 00 00 00
       6e-45 6e-45 6e-45 6e-45
0000c0 04 00 00 00 04 00 00 80 04 00 00 00 04 00 00 00
       6e-45 -6e-45 6e-45 6e-45
0000d0 00 00 00 00 00 00 00 00 00 00 00 00 00 00 00 00
       0.0 0.0 0.0 0.0
0000e0 00 00 00 00 04 00 00 80 04 00 00 80 04 00 00 80
       0.0 -6e-45 -6e-45 -6e-45
0000f0 04 00 00 80 04 00 00 00 04 00 00 00 04 00 00 00
       -6e-45 6e-45 6e-45 6e-45
000100 04 00 00 00 04 00 00 00 04 00 00 00 04 00 00 80
       6e-45 6e-45 6e-45 -6e-45
000110 04 00 00 80 04 00 00 80 04 00 00 00 04 00 00 00
       -6e-45 -6e-45 6e-45 6e-45
000120 04 00 00 00 04 00 00 00 04 00 00 80 04 00 00 80
       6e-45 6e-45 -6e-45 -6e-45
000130 04 00 00 00 04 00 00 00 04 00 00 00 04 00 00 00
       6e-45 6e-45 6e-45 6e-45
000140 04 00 00 00 00 00 00 00 00 00 00 00 00 00 00 00
       6e-45 0.0 0.0 0.0
000150 04 00 00 80 04 00 00 00 04 00 00 80 04 00 00 80
       -6e-45 6e-45 -6e-45 -6e-45
000160 04 00 00 80 04 00 00 80 04 00 00 80 04 00 00 00
       -6e-45 -6e-45 -6e-45 6e-45
000170 04 00 00 00 04 00 00 00 04 00 00 00 04 00 00 80
       6e-45 6e-45 6e-45 -6e-45
000180 c5 86 f5 05 91 e4 12 07 51 66 3f 80 04 00 00 00
       2.3089196e-35 1.1050989e-34 -5.82234e-39 6e-45
000190 04 00 00 00 04 00 00 00 04 00 00 00 04 00 00 80
       6e-45 6e-45 6e-45 -6e-45
0001a0 04 00 00 00 04 00 00 00 04 00 00 00 04 00 00 00
       6e-45 6e-45 6e-45 6e-45
0001b0 04 00 00 80 04 00 00 00 00 00 00 00 00 00 00 00
       -6e-45 6e-45 0.0 0.0
0001c0 04 00 00 80 04 00 00 00 04 00 00 80 04 00 00 80
       -6e-45 6e-45 -6e-45 -6e-45
0001d0 04 00 00 80 04 00 00 80 04 00 00 80 04 00 00 00
       -6e-45 -6e-45 -6e-45 6e-45
0001e0 04 00 00 00 04 00 00 00 04 00 00 80 5e 88 83 08
       6e-45 6e-45 -6e-45 7.9163355e-34
0001f0 0e 9c b0 08 0e 9c b0 08 0e 9c b0 08 ab 99 fd 80
       1.0629303e-33 1.0629303e-33 1.0629303e-33 -2.3289506e-38
000200 ab 99 fd 80 26 8d 03 80 04 00 00 00 04 00 00 00
       -2.3289506e-38 -3.26141e-40 6e-45 6e-45
000210 04 00 00 80 04 00 00 00 04 00 00 00 04 00 00 00
       -6e-45 6e-45 6e-45 6e-45
000220 04 00 00 00 04 00 00 00 00 00 00 00 00 00 00 00
       6e-45 6e-45 0.0 0.0
000230 04 00 00 80 04 00 00 00 04 00 00 80 04 00 00 80
       -6e-45 6e-45 -6e-45 -6e-45
000240 04 00 00 80 04 00 00 80 04 00 00 80 04 00 00 00
       -6e-45 -6e-45 -6e-45 6e-45
000250 04 00 00 00 04 00 00 00 33 7f 49 07 0a 9d b0 08
       6e-45 6e-45 1.515894e-34 1.0629534e-33
000260 0a 9d b0 08 c7 9c b0 08 e8 9c b0 08 c7 9c b0 08
       1.0629534e-33 1.0629473e-33 1.0629503e-33 1.0629473e-33
000270 44 11 d3 80 ab 99 fd 80 fe b6 07 80 04 00 00 00
       -1.9383483e-38 -2.3289506e-38 -7.08494e-40 6e-45
000280 04 00 00 00 04 00 00 00 04 00 00 00 04 00 00 00
       6e-45 6e-45 6e-45 6e-45
000290 04 00 00 00 04 00 00 00 00 00 00 00 00 00 00 00
       6e-45 6e-45 0.0 0.0
0002a0 04 00 00 80 04 00 00 80 04 00 00 80 04 00 00 80
       -6e-45 -6e-45 -6e-45 -6e-45
0002b0 04 00 00 80 04 00 00 80 04 00 00 80 04 00 00 00
       -6e-45 -6e-45 -6e-45 6e-45
0002c0 04 00 00 00 04 00 00 80 fa c7 a6 07 9e 3a 63 07
       6e-45 -6e-45 2.509444e-34 1.7094808e-34
0002d0 e1 99 e1 88 da 14 71 88 19 74 13 88 0a 9d b0 08
       -1.3577872e-33 -7.254781e-34 -4.4372676e-34 1.0629534e-33
0002e0 0a 9d b0 08 9b 55 b4 07 de 22 fb 80 04 00 00 00
       1.0629534e-33 2.7133704e-34 -2.3063218e-38 6e-45
0002f0 04 00 00 00 04 00 00 00 04 00 00 00 04 00 00 00
       6e-45 6e-45 6e-45 6e-45
000300 04 00 00 00 04 00 00 00 00 00 00 00 00 00 00 00
       6e-45 6e-45 0.0 0.0
000310 04 00 00 80 04 00 00 80 04 00 00 80 04 00 00 80
       -6e-45 -6e-45 -6e-45 -6e-45
000320 04 00 00 80 04 00 00 80 04 00 00 80 04 00 00 80
       -6e-45 -6e-45 -6e-45 -6e-45
000330 04 00 00 00 04 00 00 80 2b e2 00 88 74 ea 03 89
       6e-45 -6e-45 -3.878446e-34 -1.587879e-33
000340 19 83 12 89 a1 f7 32 89 19 83 12 89 4d a8 89 88
       -1.7635753e-33 -2.1542405e-33 -1.7635753e-33 -8.284955e-34
000350 0a 9d b0 08 0a 9d b0 08 ab 99 fd 80 04 00 00 00
       1.0629534e-33 1.0629534e-33 -2.3289506e-38 6e-45
000360 04 00 00 00 04 00 00 00 04 00 00 00 04 00 00 00
       6e-45 6e-45 6e-45 6e-45
000370 04 00 00 00 04 00 00 00 00 00 00 00 00 00 00 00
       6e-45 6e-45 0.0 0.0
000380 04 00 00 00 04 00 00 80 04 00 00 80 04 00 00 80
       6e-45 -6e-45 -6e-45 -6e-45
000390 04 00 00 80 04 00 00 80 04 00 00 80 04 00 00 80
       -6e-45 -6e-45 -6e-45 -6e-45
0003a0 04 00 00 00 08 52 b9 87 b3 49 e4 88 19 83 12 89
       6e-45 -2.788392e-34 -1.3739577e-33 -1.7635753e-33
0003b0 19 83 12 89 2d 85 55 89 66 08 69 89 a8 d1 6a 89
       -1.7635753e-33 -2.5701561e-33 -2.8050304e-33 -2.8265305e-33
0003c0 0a 9d b0 08 66 9c b0 08 0e 9c b0 08 98 66 52 80
       1.0629534e-33 1.0629384e-33 1.0629303e-33 -7.567314e-39
0003d0 04 00 00 00 04 00 00 00 04 00 00 00 04 00 00 00
       6e-45 6e-45 6e-45 6e-45
0003e0 04 00 00 00 04 00 00 00 00 00 00 00 00 00 00 00
       6e-45 6e-45 0.0 0.0
0003f0 04 00 00 00 04 00 00 80 04 00 00 80 04 00 00 80
       6e-45 -6e-45 -6e-45 -6e-45

exp_avg_sq f4 [100, 784]
000000 00 00 00 00 00 00 00 00 00 00 00 00 b8 28 04 00
       0.0 0.0 0.0 3.81949e-40
000010 1a 91 15 03 69 d8 09 12 15 8c e0 14 8d 25 71 15
       4.3953733e-37 4.3496324e-28 2.2673472e-26 4.8699185e-26
000020 ee d9 d7 16 dc 6f d1 17 77 3e 16 18 b9 42 71 18
       3.4872656e-25 1.3534546e-24 1.9418582e-24 3.1182206e-24
000030 a8 96 9a 18 52 bc b8 1f 88 c4 e4 1d 0d a7 0f 1e
       3.996019e-24 7.823858e-20 6.0554306e-21 7.604902e-21
000040 c8 8a ce 2a 0b 30 15 16 ca 8e 96 15 8a 39 ff 14
       3.668925e-13 1.2051284e-25 6.08098e-26 2.5771115e-26
000050 ec b5 db 13 6f 57 e7 10 16 a7 bb 09 c6 1a 22 05
       5.546276e-27 9.124815e-29 4.517574e-33 7.622121e-36
000060 00 00 00 00 00 00 00 00 00 00 00 00 00 00 00 00
       0.0 0.0 0.0 0.0
000070 00 00 00 00 f4 01 00 00 7c 69 03 00 79 ef 20 0d
       0.0 7e-43 3.13347e-40 4.959206e-31
000080 6d 7d 88 15 df 9c a3 15 8e c2 76 16 6a 66 e4 16
       5.512785e-26 6.6082675e-26 1.9933112e-25 3.690002e-25
000090 43 e4 42 18 17 db 83 18 b1 7a f0 1c 74 b5 33 1a
       2.5189155e-24 3.408393e-24 1.5913583e-21 3.716291e-23
0000a0 17 63 f9 1a 31 c8 6d 30 6b 46 32 32 f2 9f 27 32
       1.03144075e-22 8.6504587e-10 1.0376975e-08 9.757047e-09
0000b0 ef eb a5 31 27 63 82 2c 7d be 48 17 70 a0 b2 16
       4.8289546e-09 3.7058303e-12 6.4863915e-25 2.8858701e-25
0000c0 3b 49 12 15 67 ec 2c 14 ad 82 98 0f 3f b8 3b 06
       2.9542234e-26 8.730403e-27 1.5038692e-29 3.5306154e-35
0000d0 00 00 00 00 00 00 00 00 00 00 00 00 00 00 00 00
       0.0 0.0 0.0 0.0
0000e0 00 00 00 00 8a 7a 24 00 84 58 88 10 c2 4f 7b 15
       0.0 3.350037e-39 5.377892e-29 5.0751964e-26
0000f0 fe b8 20 16 d8 ab e5 16 29 f6 58 17 b9 64 70 18
       1.298307e-25 3.7105394e-25 7.010406e-25 3.1070125e-24
000100 42 fe db 18 b3 da e7 1c a6 ee 1c 2d dd 24 c5 2a
       5.6866908e-24 1.534283e-21 8.920564e-12 3.501981e-13
000110 93 39 87 30 6c af 2c 32 a6 33 33 32 8a 0e 10 31
       9.838906e-10 1.0051604e-08 1.0430915e-08 2.0963022e-09
000120 81 54 6c 30 23 93 08 2e cc 3b 0d 18 be 8b 40 17
       8.5976387e-10 3.1053504e-11 1.8254013e-24 6.2214925e-25
000130 dc 51 b3 15 c5 91 09 15 ed 51 5a 13 e2 2e a3 0c
       7.2426676e-26 2.7781922e-26 2.755586e-27 2.5142343e-31
000140 48 74 55 05 00 00 00 00 00 00 00 00 00 00 00 00
       1.00365694e-35 0.0 0.0 0.0
000150 f4 01 00 00 62 bc 7e 14 8b 61 9b 15 1c d9 49 16
       7e-43 1.2860875e-26 6.27579e-26 1.6305158e-25
000160 ce 07 ef 16 34 76 63 17 1f 06 27 18 ab b5 d5 18
       3.8617458e-25 7.349685e-25 2.1587334e-24 5.5242647e-24
000170 8f 18 75 1a 7d 0d 55 2c 35 93 08 2e 30 93 08 2e
       5.068465e-23 3.0276608e-12 3.1053566e-11 3.105355e-11
000180 08 ac 28 32 9c e4 37 32 c3 46 8f 30 bd 95 0b 2d
       9.818002e-09 1.0703982e-08 1.0424731e-09 7.934484e-12
000190 87 c9 bd 2d 70 93 08 2e 73 55 ac 20 9a d8 9f 18
       2.1576308e-11 3.105377e-11 2.919448e-19 4.131925e-24
0001a0 4b 10 33 17 d9 83 b7 16 c5 a4 b5 15 ff 18 10 0f
       5.7858584e-25 2.9648452e-25 7.336528e-26 7.104562e-30
0001b0 5c 50 0e 0a 33 3d 00 00 00 00 00 00 00 00 00 00
       6.852165e-33 2.1954e-41 0.0 0.0
0001c0 1f 2d 84 01 db 38 e7 14 a9 5e 3d 16 d5 20 d2 16
       4.855389e-38 2.3347465e-26 1.5297168e-25 3.394805e-25
0001d0 50 fa 73 17 dd d9 6b 19 91 68 92 19 90 5c 20 24
       7.8833473e-25 1.2193212e-23 1.513828e-23 3.4772873e-17
0001e0 09 01 69 24 6b 2c 49 2d 38 93 08 2e 20 3d 58 33
       5.0524698e-17 1.143539e-11 3.1053576e-11 5.0347012e-08
0001f0 11 cb bc 33 64 0e a8 33 26 fe a9 33 86 f8 10 2c
       8.79137e-08 7.825727e-08 7.915905e-08 2.060159e-12
000200 3e 1e 27 2f bb 9c e0 2f aa af 90 2f d3 6d 33 2f
       1.5199306e-10 4.0856726e-10 2.6318264e-10 1.6318973e-10
000210 55 cc 61 2e 89 cd 60 17 2d ad da 14 57 bc b5 13
       5.134056e-11 7.2637725e-25 2.208068e-26 4.587654e-27
000220 83 38 85 0c 8d d7 0a 00 00 00 00 00 00 00 00 00
       2.0525906e-31 9.9568e-40 0.0 0.0
000230 ad b6 78 14 39 b6 0d 15 ac 2d a4 16 16 4c 2e 17
       1.2556827e-26 2.8618472e-26 2.6524452e-25 5.6318466e-25
000240 29 0c e8 18 66 71 7c 19 60 4f cc 23 34 01 69 24
       5.9982873e-24 1.3050995e-23 2.2151341e-17 5.052484e-17
000250 27 01 69 24 7a 94 6b 2c 8d b5 de 30 47 d3 bc 33
       5.0524797e-17 3.347793e-12 1.6204226e-09 8.792863e-08
000260 49 26 b7 33 df f1 a7 33 26 fe a9 33 26 fe a9 33
       8.5285656e-08 7.8205396e-08 7.915905e-08 7.915905e-08
000270 e8 7a 8d 30 c9 96 82 30 1a a7 83 30 6a 78 8b 30
       1.0294032e-09 9.501601e-10 9.578998e-10 1.0147805e-09
000280 d5 08 8b 30 4d b3 09 23 02 22 6b 22 c3 e5 4a 1e
       1.0116091e-09 7.464753e-18 3.1866442e-18 1.07413046e-20
000290 bd 86 8f 12 15 a5 1b 00 00 00 00 00 00 00 00 00
       9.057784e-28 2.538779e-39 0.0 0.0
0002a0 58 b6 78 14 3d 4a 8e 15 d9 50 4a 17 f3 ca 5c 17
       1.2556761e-26 5.747047e-26 6.5371764e-25 7.134199e-25
0002b0 f5 18 1e 26 c5 f6 a8 26 50 d9 89 27 00 d9 1c 28
       5.4851085e-16 1.1724229e-15 3.826075e-15 8.706794e-15
0002c0 7e 1f 9c 28 82 c5 89 28 ee bf 09 32 47 d3 bc 33
       1.7333137e-14 1.529571e-14 8.018089e-09 8.792863e-08
0002d0 23 d2 a7 33 dd de a7 33 af fe a9 33 23 d7 a8 33
       7.814767e-08 7.817082e-08 7.9160024e-08 7.862243e-08
0002e0 f0 34 a8 33 ee 2b b3 31 5b 4b 72 2c 08 fd 70 2c
       7.832739e-08 5.21458e-09 3.44321e-12 3.4246512e-12
0002f0 42 07 06 2b 90 bf 3d 24 85 68 35 24 ef 98 31 1f
       4.7616436e-13 4.1145102e-17 3.933665e-17 3.7607712e-20
000300 93 a5 79 14 62 01 2e 10 00 00 00 00 00 00 00 00
       1.2603941e-26 3.4316515e-29 0.0 0.0
000310 4d 5c f5 11 ee 53 91 15 d5 32 3f 17 a4 38 61 26
       3.871107e-28 5.869745e-26 6.177959e-25 7.813932e-16
000320 90 91 86 29 da a9 86 29 ab ae 86 29 a6 93 86 29
       5.9760465e-14 5.98026e-14 5.9810955e-14 5.976408e-14
000330 0f 93 86 29 cc 91 86 29 bc ce bc 33 47 d3 bc 33
       5.976306e-14 5.976087e-14 8.792037e-08 8.792863e-08
000340 26 d2 a7 33 d6 4a 06 33 f5 ff a9 33 71 d4 a7 33
       7.814769e-08 3.126737e-08 7.916234e-08 7.8151864e-08
000350 59 d6 a7 33 0a e4 a7 33 ea 10 1a 2c 62 4a 72 2c
       7.815533e-08 7.8180236e-08 2.1894105e-12 3.443156e-12
000360 19 0b 60 2b 30 cc 38 24 08 d6 0d 18 e2 e7 c0 16
       7.959619e-13 4.0071593e-17 1.8331881e-24 3.1165612e-25
000370 fb 98 a3 15 fe af 13 13 00 00 00 00 00 00 00 00
       6.6076536e-26 1.864078e-27 0.0 0.0
000380 ac 30 55 12 83 aa af 14 c9 61 32 17 90 91 86 29
       6.727094e-28 1.773774e-26 5.7638324e-25 5.9760465e-14
000390 90 91 86 29 e7 ad 86 29 c0 97 86 29 97 91 86 29
       5.9760465e-14 5.9809627e-14 5.97712e-14 5.976051e-14
0003a0 3e 93 86 29 03 92 86 29 50 d3 bc 33 74 a9 b7 33
       5.976338e-14 5.9761244e-14 8.79287e-08 8.552425e-08
0003b0 fa d2 a7 33 b7 98 5f 2c b2 7b 8b 30 d2 28 cc 2d
       7.81492e-08 3.177498e-12 1.0148737e-09 2.3210243e-11
0003c0 93 da a7 33 25 e3 a7 33 c6 d2 a7 33 a6 fc 72 2c
       7.816302e-08 7.817861e-08 7.814883e-08 3.4530516e-12
0003d0 99 37 60 2b 82 2a 35 24 a3 17 13 18 82 ca 75 17
       7.9657944e-13 3.9284124e-17 1.9011238e-24 7.941937e-25
0003e0 47 80 03 16 bc 42 e6 13 00 00 00 00 00 00 00 00
       1.0622573e-25 5.8125968e-27 0.0 0.0
0003f0 23 47 b0 0e 4a 16 87 14 c7 a8 36 26 90 91 86 29
       4.3455852e-30 1.3640308e-26 6.337267e-16 5.9760465e-14

exp_avg f4 [100]
000000 a4 83 12 89 e2 e3 a1 af 7e ac 90 18 40 2d b2 2f
       -1.7636008e-33 -2.944765e-10 3.73973e-24 3.2410163e-10
000010 ab 39 8c b9 83 e2 18 39 77 37 86 30 8f ee b1 af
       -0.00026745847 0.00014580232 9.765547e-10 -3.2365619e-10
000020 f2 33 9f b5 58 f5 47 af e8 7f 66 a5 f7 d6 46 12
       -1.1861541e-06 -1.8186108e-10 -1.9992656e-16 6.274275e-28
000030 21 7b 5d ac 0f 2c 45 39 82 1e 8d 92 36 05 ae b8
       -3.147434e-12 0.00018803797 -8.905872e-28 -8.297937e-05
000040 04 00 00 00 d4 b4 19 b9 d7 d7 3d b0 51 1d e3 38
       6e-45 -0.00014658581 -6.9064526e-10 0.00010829664
000050 f1 9c 8c b1 54 c4 10 b5 04 00 00 80 04 00 00 00
       -4.0923784e-09 -5.3929875e-07 -6e-45 6e-45
000060 04 00 00 00 d5 8b af 2f 04 00 00 00 88 1a 96 b1
       6e-45 3.193167e-10 6e-45 -4.368591e-09
000070 d6 9b 1c a6 fc 00 20 b9 04 00 00 00 64 5c 18 b0
       -5.433457e-16 -0.00015259156 6e-45 -5.5428573e-10
000080 bb e7 52 30 f2 cf d8 37 47 6a 45 32 04 00 00 00
       7.6726864e-10 2.5846039e-05 1.1491074e-08 6e-45
000090 37 64 94 b3 73 1c 77 2f df b5 07 b3 b4 7e ca 2f
       -6.910016e-08 2.2474626e-10 -3.1597548e-08 3.6833614e-10
0000a0 75 2a 24 39 d1 0f dc b0 6c 59 c7 ac 8b 4f 93 38
       0.00015656075 -1.6011602e-09 -5.665848e-12 7.024322e-05
0000b0 3f 31 b9 b9 26 de ce 34 96 85 b8 ae 10 25 a4 34
       -0.0003532264 3.8532124e-07 -8.391081e-11 3.0574347e-07
0000c0 f2 c9 11 29 56 2b b6 34 5a 95 28 38 5e 7c 87 33
       3.2371627e-14 3.3931673e-07 4.0193416e-05 6.3090496e-08
0000d0 74 01 f9 b7 45 01 c6 38 0e ca f9 22 3d 83 23 b0
       -2.968379e-05 9.441612e-05 6.770552e-18 -5.9485555e-10
0000e0 d8 bc 96 2e 04 00 00 00 04 00 00 00 03 c9 d7 39
       6.8547557e-11 6e-45 6e-45 0.0004115776
0000f0 54 1f ae 27 20 5f fd 98 a5 70 cf 2a 8e 60 c5 b8
       4.8328668e-15 -6.549502e-24 3.684875e-13 -9.411677e-05
000100 1c 1e bc 34 91 57 7d 2f 3b 3d 4c 38 97 72 00 b0
       3.5039636e-07 2.3041326e-10 4.8694415e-05 -4.672897e-10
000110 7c 69 a3 28 53 dc ba b4 04 00 00 00 15 19 bf 39
       1.8142382e-14 -3.4805507e-07 6e-45 0.00036449046
000120 04 00 00 80 65 78 32 b0 11 8b 90 32 bc a9 1c 3a
       -6e-45 -6.4927114e-10 1.6827046e-08 0.000597622
000130 15 08 70 13 04 00 00 80 04 00 00 00 da 7a 01 2f
       3.0296244e-27 -6e-45 6e-45 1.1776127e-10
000140 af b6 a9 b9 77 46 85 b5 f7 9f e1 b2 be ef 95 9c
       -0.00032370302 -9.92978e-07 -2.6266191e-08 -9.921965e-22
000150 e1 42 e2 2e 1d 27 04 30 b5 a1 59 27 04 00 00 00
       1.028917e-10 4.8076904e-10 3.0202461e-15 6e-45
000160 ab 9c 4a 39 a2 61 44 b3 53 82 f4 b7 ea 23 2d 39
       0.00019322585 -4.5723603e-08 -2.9147754e-05 0.00016511945
000170 9c 67 9d ae 71 f0 9d b8 7e ba 80 31 7c 01 a8 b2
       -7.157938e-11 -7.531129e-05 3.746492e-09 -1.9558449e-08
000180 d6 ca a6 ae 09 5e fb ae ca a2 57 b4 48 5c 06 32
       -7.584837e-11 -1.14308625e-10 -2.0082658e-07 7.820809e-09

exp_avg_sq f4 [100]
000000 36 01 bf 33 17 cb 34 36 4e 0b 27 33 75 bf 64 35
       8.894351e-08 2.6940304e-06 3.8893e-08 8.5215225e-07
000010 04 ae 57 36 ec fe 29 36 6e 41 2d 36 c2 46 17 35
       3.2138787e-06 2.5331346e-06 2.5817094e-06 5.635485e-07
000020 59 9b 9d 36 fc 10 0b 35 66 c0 d4 34 02 b5 5b 32
       4.6970495e-06 5.180625e-07 3.9628065e-07 1.2788634e-08
000030 ac 5c cb 35 25 60 e7 35 82 3c 97 32 af f2 54 36
       1.515165e-06 1.7238823e-06 1.760623e-08 3.1731722e-06
000040 31 d3 13 19 cb 7b 4f 35 6d 6a 8b 35 de 0f 44 34
       7.642372e-24 7.729365e-07 1.0387281e-06 1.8259695e-07
000050 b5 82 4a 35 ca 9e 03 36 93 b3 db 16 8d fd c2 0e
       7.544107e-07 1.9612949e-06 3.5494685e-25 4.8068853e-30
000060 25 b1 3c 1c c5 58 7d 34 65 6f 81 18 3d 78 1b 34
       6.2432936e-22 2.3594755e-07 3.34582e-24 1.4479242e-07
000070 2d fe 81 33 18 ac 11 36 19 44 88 18 38 5a 9c 33
       6.053265e-08 2.1706855e-06 3.5223937e-24 7.280727e-08
000080 9b 96 41 35 26 73 c0 35 54 2a 0d 35 28 79 94 16
       7.211726e-07 1.4338627e-06 5.258819e-07 2.398715e-25
000090 c5 4e 89 36 d8 ae ea 35 67 41 e3 35 5a c5 11 36
       4.092088e-06 1.7485245e-06 1.6931853e-06 2.1721557e-06
0000a0 44 34 96 36 b6 c2 f3 34 6e f1 8d 32 a1 99 d2 34
       4.476433e-06 4.5403948e-07 1.652435e-08 3.9227328e-07
0000b0 79 7d b9 36 23 a2 f6 35 f3 8c 26 35 e2 c0 31 35
       5.5280366e-06 1.8375616e-06 6.2044927e-07 6.621832e-07
0000c0 bf 3b c9 34 c4 a2 8b 35 9e 97 aa 35 d8 f3 fb 35
       3.7482639e-07 1.0403678e-06 1.2710113e-06 1.8771925e-06
0000d0 c0 ef ae 34 99 6d 54 36 02 9b 4e 34 54 ee 97 36
       3.2584467e-07 3.1654256e-06 1.9241637e-07 4.5278957e-06
0000e0 e5 c5 dd 36 9f c7 89 16 a7 07 0b 19 c2 36 17 36
       6.609351e-06 2.2259522e-25 7.187677e-24 2.2532627e-06
0000f0 bb 88 02 36 87 e4 26 33 89 27 04 35 d1 8d b2 36
       1.9451097e-06 3.885773e-08 4.9231363e-07 5.321323e-06
000100 ef 89 4a 35 cd 46 eb 35 61 e8 04 36 ab f7 af 36
       7.5451584e-07 1.752947e-06 1.9804795e-06 5.2442388e-06
000110 65 b5 4a 35 eb d4 81 35 c2 af ef 18 07 e8 1c 36
       7.551483e-07 9.673216e-07 6.1957522e-24 2.338087e-06
000120 e6 bf ce 2d 2b 64 56 36 ca f0 1b 36 a8 86 36 36
       2.3504709e-11 3.194679e-06 2.3236958e-06 2.7198494e-06
000130 7f d1 f7 32 18 9b ec 16 69 f6 23 18 ce 0a 76 35
       2.8849852e-08 3.8225734e-25 2.1191662e-24 9.1657864e-07
000140 54 92 bb 35 2e d2 68 35 94 04 a8 34 78 fd e9 33
       1.3975173e-06 8.6732587e-07 3.129577e-07 1.0896014e-07
000150 0f 5f 8a 35 06 60 01 34 ff 51 99 34 05 72 a2 16
       1.0309467e-06 1.2048994e-07 2.855813e-07 2.6244468e-25
000160 2b 62 cc 35 10 0f 9d 35 6a 71 13 36 4d ea 07 36
       1.5227755e-06 1.1701795e-06 2.1970723e-06 2.0252949e-06
000170 8e b8 01 35 fa b7 50 35 b7 9f a7 33 5b a4 7e 34
       4.832481e-07 7.775376e-07 7.8055955e-08 2.3715386e-07
000180 6a 25 ae 35 90 8c f3 34 df bb f2 35 d2 b8 91 35
       1.2974899e-06 4.536455e-07 1.8085083e-06 1.0857132e-06

exp_avg f4 [10, 100]
000000 95 d9 77 8a b6 54 9c 05 04 00 00 00 c6 99 01 24
       -1.193354e-32 1.4701287e-35 6e-45 2.8102667e-17
000010 53 00 00 00 9c 1b 8b 31 5a 60 ba 04 b8 a8 7b 8a
       1.16e-43 4.0485713e-09 4.3816875e-36 -1.2116943e-32
000020 4e 1d 55 01 04 00 00 00 04 00 00 00 04 00 00 00
       3.9142946e-38 6e-45 6e-45 6e-45
000030 86 f3 21 14 95 c4 16 02 04 00 00 00 b8 bb 11 1a
       8.176449e-27 1.1076676e-37 6e-45 3.0136935e-23
000040 04 00 00 00 12 e1 d3 2e 2f 65 92 13 d2 b1 f6 23
       6e-45 9.6351496e-11 3.6955356e-27 2.6746683e-17
000050 e8 a1 4b 33 32 67 2b 33 04 00 00 00 04 00 00 00
       4.7411874e-08 3.9907896e-08 6e-45 6e-45
000060 04 00 00 00 04 00 00 00 04 00 00 80 23 c9 19 34
       6e-45 6e-45 -6e-45 1.4322409e-07
000070 04 ef 7a 06 29 2a 8f 01 04 00 00 80 04 00 00 00
       4.7195375e-35 5.25904e-38 -6e-45 6e-45
000080 3a 50 29 00 68 bd 04 89 d0 48 df 32 04 00 00 00
       3.794035e-39 -1.597798e-33 2.5993728e-08 6e-45
000090 c2 96 aa 32 6d 00 00 00 04 00 00 00 e7 2b 2e 95
       1.9859161e-08 1.53e-43 6e-45 -3.5173653e-26
0000a0 16 20 bb 33 04 00 00 00 04 00 00 00 37 32 47 34
       8.7137025e-08 6e-45 6e-45 1.8551587e-07
0000b0 40 f3 8a 34 36 fd 92 24 1e a2 a9 01 04 00 00 00
       2.588149e-07 6.374636e-17 6.231342e-38 6e-45
0000c0 c6 38 9c 23 78 a1 aa 33 aa 2a 8e 30 e8 18 23 34
       1.6937598e-17 7.945613e-08 1.0343986e-09 1.5189619e-07
0000d0 ce da 32 34 54 fc 08 30 1d 43 5d 23 c8 8e f0 23
       1.6657143e-07 4.983509e-10 1.1994646e-17 2.6081322e-17
0000e0 82 92 bf 94 04 00 00 00 04 00 00 00 c2 09 16 30
       -1.9343859e-26 6e-45 6e-45 5.458355e-10
0000f0 85 b3 14 22 04 00 00 00 ce 29 00 00 f8 67 99 06
       2.0152777e-18 6e-45 1.4997e-41 5.770497e-35
000100 b5 6d c6 05 04 00 00 00 40 04 ef 30 dc 19 9f 09
       1.866013e-35 6e-45 1.7390747e-09 3.8302176e-33
000110 8c 84 d6 22 22 7a b8 00 04 00 00 00 40 d6 aa 31
       5.8145156e-18 1.6941544e-38 6e-45 4.9720086e-09
000120 04 00 00 00 0b 5d 04 00 12 00 00 00 23 4d 87 31
       6e-45 4.0072e-40 2.5e-44 3.9377865e-09
000130 04 00 00 00 04 00 00 00 04 00 00 80 13 04 0b 00
       6e-45 6e-45 -6e-45 1.011652e-39
000140 04 00 00 00 85 29 58 00 04 00 00 80 45 2f 5a 13
       6e-45 8.096418e-39 -6e-45 2.7538774e-27
000150 32 11 8d 09 82 0c 00 00 04 00 00 00 04 00 00 80
       3.3960686e-33 4.487e-42 6e-45 -6e-45
000160 df 78 e6 14 75 a2 10 1b 1a 00 00 00 9c ab 70 34
       2.327174e-26 1.1963894e-22 3.6e-44 2.2414173e-07
000170 c5 5f 5d 24 25 7e 62 94 9d ab 0a 33 04 00 00 00
       4.8002856e-17 -1.1434962e-26 3.228671e-08 6e-45
000180 eb bf 93 23 ed 88 60 94 d7 42 0c 24 64 a3 7d 94
       1.6019052e-17 -1.1336114e-26 3.0414276e-17 -1.2805459e-26
000190 1a 14 c3 0a 99 2d 57 b2 04 00 00 00 1b 97 e9 11
       1.8785378e-32 -1.2525015e-08 6e-45 3.6854044e-28
0001a0 78 9f ad 14 71 c2 18 ac b0 ef a4 b0 86 a8 6c b1
       1.7531435e-26 -2.1708436e-12 -1.2000694e-09 -3.4438314e-09
0001b0 28 f4 52 12 fc 81 bc 0f ab ae 8d 13 92 18 0f 00
       6.656526e-28 1.85883e-29 3.576564e-27 1.386347e-39
0001c0 0d 54 dc 2f 34 fa 77 ac 5b 72 17 12 9e 41 4b b0
       4.0077489e-10 -3.5239702e-12 4.7788153e-28 -7.394422e-10
0001d0 04 00 00 80 3b 21 95 b1 55 56 2b 1e d2 11 9c 09
       -6e-45 -4.3402486e-09 9.070518e-21 3.7572392e-33
0001e0 6d 26 f3 a1 75 1b 35 08 04 00 00 00 04 00 00 00
       -1.6476492e-18 5.449998e-34 6e-45 6e-45
0001f0 04 00 00 00 de bb b4 b1 04 00 00 00 a9 ce 47 aa
       6e-45 -5.2600475e-09 6e-45 -1.774645e-13
000200 1a 56 39 a9 f1 4f 1c ab 04 00 00 00 04 00 00 00
       -4.1152933e-14 -5.5533274e-13 6e-45 6e-45
000210 c5 72 0d b0 c1 75 ab a9 45 20 b4 13 04 00 00 80
       -5.14586e-10 -7.6143525e-14 4.547021e-27 -6e-45
000220 b9 39 3d 24 75 dc 42 ab f2 c2 9d ab fb 8b cb ac
       4.1031735e-17 -6.922859e-13 -1.1209629e-12 -5.785148e-12
000230 4b 88 c8 9b dc 20 a6 08 df 9d db 2e 6b 47 e2 13
       -3.3175302e-22 9.998487e-34 9.9870105e-11 5.7120844e-27
000240 68 a6 90 b2 c7 36 01 ad 9a 9e d6 00 9c 22 49 9c
       -1.683948e-08 -7.344964e-12 1.9709692e-38 -6.6550053e-22
000250 4e 40 e3 28 be 2d 2c ab 27 80 e6 ab ee 87 a8 0f
       2.522995e-14 -6.1170155e-13 -1.6378052e-12 1.6618437e-29
000260 a1 3a 2b 14 dd 09 96 ab 69 c7 fc 08 27 43 7b b0
       8.644856e-27 -1.0660879e-12 1.5213579e-33 -9.14087e-10
000270 99 5e c6 b1 04 00 00 80 04 00 00 00 ee cf ad ac
       -5.773313e-09 -6e-45 6e-45 -4.9400406e-12
000280 45 f8 4d 27 04 00 00 00 b0 b5 18 ac db a8 15 b2
       2.8584052e-15 6e-45 -2.1701356e-12 -8.711335e-09
000290 d4 94 f2 b0 b3 8f 8e 2f 02 50 9a b0 24 92 f2 b1
       -1.7650117e-09 2.5931754e-10 -1.1227714e-09 -7.0597412e-09
0002a0 ed 36 2d ac 03 dd a9 ac 04 00 00 80 6c 1e f4 ac
       -2.4615269e-12 -4.827806e-12 -6e-45 -6.9382746e-12
0002b0 04 00 00 00 c5 d9 92 aa fc 01 c4 13 8a a9 20 ac
       6e-45 -2.6085918e-13 4.9479313e-27 -2.283148e-12
0002c0 ab 2d b6 12 04 00 00 00 04 00 00 00 4a a8 12 b2
       1.1497073e-27 6e-45 6e-45 -8.536583e-09
0002d0 67 0a bd 9c 04 00 00 00 04 00 00 00 d5 3f 15 1d
       -1.250966e-21 6e-45 6e-45 1.9752986e-21
0002e0 a6 5e 19 1f ec fc 0f 10 04 00 00 00 04 00 00 00
       3.24773e-20 2.839662e-29 6e-45 6e-45
0002f0 be 51 c9 13 04 00 00 00 06 37 55 13 0f ca 49 9a
       5.0820137e-27 6e-45 2.6911508e-27 -4.1729047e-23
000300 0a 84 9b ac d2 27 86 a9 6a 0e ee 12 04 00 00 00
       -4.4200242e-12 -5.957703e-14 1.5023465e-27 6e-45
000310 37 25 83 b1 d6 84 18 a9 90 26 25 0c 19 d8 80 0f
       -3.8168326e-09 -3.3865997e-14 1.2722742e-31 1.2705012e-29
000320 04 00 00 80 b5 1e 57 32 04 00 00 00 35 14 c6 9c
       -6e-45 1.2521629e-08 6e-45 -1.3107764e-21
000330 9b 5c 80 9e 34 ef b8 28 af ef a4 30 7d a9 6c 31
       -1.3590828e-20 2.0531841e-14 1.2000693e-09 3.4438863e-09
000340 19 6e a9 22 04 00 00 00 04 00 00 00 04 00 00 00
       4.5924112e-18 6e-45 6e-45 6e-45
000350 25 53 dc af 96 b8 70 18 31 00 00 00 93 41 4b 30
       -4.0076845e-10 3.1112465e-24 6.9e-44 7.3944156e-10
000360 04 00 00 00 57 21 95 31 24 d1 9b 22 c2 b8 af 03
       6e-45 4.340261e-09 4.223427e-18 1.0327994e-36
000370 8b 34 f4 21 a8 80 09 05 04 00 00 00 04 00 00 80
       1.6547991e-18 6.4653395e-36 6e-45 -6e-45
000380 04 00 00 00 de bb b4 31 04 00 00 80 18 18 47 2a
       6e-45 5.2600475e-09 -6e-45 1.768311e-13
000390 7b 39 38 29 bc 25 1f 21 04 00 00 00 04 00 00 00
       4.0906064e-14 5.3921236e-19 6e-45 6e-45
0003a0 ce 72 0d 30 05 ad aa 29 2a 17 37 04 04 00 00 00
       5.145865e-10 7.579531e-14 2.1522183e-36 6e-45
0003b0 6f 3e 3d a4 1a e1 5f a3 a6 4c ae a4 04 00 00 00
       -4.1035725e-17 -1.2136521e-17 -7.559032e-17 6e-45
0003c0 d9 00 00 00 04 00 00 00 df 9d db ae dd 02 00 00
       3.04e-43 6e-45 -9.9870105e-11 1.027e-42
0003d0 a6 a0 90 32 93 b3 4f 26 0a 00 00 00 04 00 00 00
       1.683686e-08 7.206092e-16 1.4e-44 6e-45
0003e0 c5 6f 1f 26 63 a5 38 21 f6 ec 0e 9e fb 45 c7 03
       5.531568e-16 6.256051e-19 -7.56642e-21 1.17122355e-36
0003f0 04 00 00 00 51 83 8d 1c ca e4 03 00 3b b8 79 30
       6e-45 9.364542e-22 3.5758e-40 9.084748e-10

exp_avg_sq f4 [10, 100]
000000 13 fb 25 37 0c 38 65 30 df 1e 60 2e ad b4 2c 34
       9.893224e-06 8.338936e-10 5.0959122e-11 1.6084478e-07
000010 0a 87 60 35 28 d3 ff 37 a8 13 8d 34 f4 c4 5f 38
       8.364301e-07 3.0496696e-05 2.6277598e-07 5.335077e-05
000020 69 78 f1 37 53 73 90 31 ce b3 53 35 66 df 02 35
       2.878551e-05 4.2040624e-09 7.8865276e-07 4.875386e-07
000030 fc 05 b9 38 95 ee dc 32 1b 82 40 28 44 14 0a 37
       8.822602e-05 2.5719865e-08 1.0686353e-14 8.230159e-06
000040 b1 a6 1d 18 bb fd 8b 32 48 a9 bc 37 43 49 f4 35
       2.0375932e-24 1.6297113e-08 2.2490174e-05 1.8200739e-06
000050 f1 b9 b9 33 61 86 26 36 dc 37 d7 17 f9 55 7a 0c
       8.6485564e-08 2.4814146e-06 1.390815e-24 1.9285171e-31
000060 a7 12 52 1f 0d 1a be 32 f5 4a 26 17 02 3f c9 33
       4.448466e-20 2.2130758e-08 5.37321e-25 9.371253e-08
000070 71 e0 84 31 b9 1b 30 37 26 99 e7 18 4d 99 1c 1e
       3.8672217e-09 1.0496872e-05 5.986674e-24 8.290273e-21
000080 c1 be 85 34 3a e3 e3 37 e6 fc 01 38 cf 10 8e 14
       2.4911972e-07 2.716632e-05 3.0991527e-05 1.4344966e-26
000090 65 5c ca 36 ad cd bf 33 bc 10 98 2d 4f 7b ba 38
       6.0308253e-06 8.931543e-08 1.7287831e-11 8.892139e-05
0000a0 c3 0d c1 37 cf ce 5a 34 0f 88 93 2c 47 d0 cb 36
       2.3013801e-05 2.0378069e-07 4.193097e-12 6.074118e-06
0000b0 1f a5 03 3a 85 12 25 34 5f 5b 0b 37 13 3c c6 2f
       0.00050218584 1.537356e-07 8.30632e-06 3.6058675e-10
0000c0 a2 66 b6 36 8b 42 ef 36 36 59 ac 33 02 2a 63 38
       5.4359707e-06 7.1305017e-06 8.0256015e-08 5.416014e-05
0000d0 06 32 a3 37 10 d8 35 35 7a cb 86 37 1c a9 c1 2f
       1.9454408e-05 6.7742167e-07 1.6068796e-05 3.5226655e-10
0000e0 b7 45 c3 37 21 ba 87 16 b3 6c 41 18 7a c9 59 37
       2.3278275e-05 2.192789e-25 2.4999544e-24 1.2981118e-05
0000f0 8a 6a a0 36 89 30 b3 33 fa 10 fe 35 8d a9 df 37
       4.7807744e-06 8.3441655e-08 1.8929416e-06 2.6662625e-05
000100 f6 c0 32 37 37 b8 71 35 41 f0 a6 38 29 00 53 34
       1.0654554e-05 9.0047564e-07 7.9602476e-05 1.9650965e-07
000110 cf 29 60 36 ec 3a 3b 37 fc 5d 15 17 55 6a a2 37
       3.3402937e-06 1.1159787e-05 4.826312e-25 1.936142e-05
000120 60 01 d1 30 0f d5 86 35 37 98 2e 32 3c 96 8c 36
       1.5207142e-09 1.0045786e-06 1.0162743e-08 4.1898147e-06
000130 ee 6d 82 32 a5 7c 6d 16 ad b0 d4 14 0b 6f b2 37
       1.5183982e-08 1.9184038e-25 2.1476216e-26 2.1270962e-05
000140 64 d9 cf 30 da 1e 2b 36 30 49 d1 36 eb 0a 72 33
       1.5123018e-09 2.5498944e-06 6.2372055e-06 5.6354946e-08
000150 41 0e 5f 37 0b 3a 7b 2b d3 0f f4 34 34 d6 70 16
       1.32951545e-05 8.9253664e-13 4.5460055e-07 1.9454636e-25
000160 27 e7 d1 33 13 80 57 35 96 22 55 32 1f cc 25 35
       9.774367e-08 8.0280114e-07 1.2406096e-08 6.1764325e-07
000170 19 d4 06 33 91 2e 03 38 07 8d 1d 37 44 ff 03 29
       3.1392208e-08 3.1276202e-05 9.390765e-06 2.930925e-14
000180 ed d4 67 35 9e 05 09 38 a1 15 42 36 4e 73 12 37
       8.6364054e-07 3.2668577e-05 2.8920842e-06 8.729125e-06
000190 d7 28 56 33 9f a5 4e 39 21 42 01 33 ae f0 c4 35
       4.98629e-08 0.0001970739 3.0095297e-08 1.4673185e-06
0001a0 9c 40 79 38 84 35 55 38 78 50 6a 38 39 57 f3 37
       5.94264e-05 5.0832998e-05 5.586489e-05 2.9008474e-05
0001b0 8a 89 86 37 84 09 a4 35 8e ab 03 36 85 28 90 34
       1.6038091e-05 1.2221722e-06 1.962038e-06 2.6851572e-07
0001c0 69 e2 9c 38 07 19 d9 36 55 50 0b 34 0a 9a b6 38
       7.480832e-05 6.4700175e-06 1.2974608e-07 8.707128e-05
0001d0 55 6e be 1a 86 cd 29 38 7c 04 67 35 55 58 c2 34
       7.876041e-23 4.048415e-05 8.606073e-07 3.6199586e-07
0001e0 40 f8 8c 37 1f f9 a4 36 6d f1 24 17 37 93 ab 0c
       1.6804901e-05 4.9165824e-06 5.329598e-25 2.6435323e-31
0001f0 42 b3 52 1f c3 36 84 39 c0 a7 72 19 68 fe a5 38
       4.4617508e-20 0.00025217803 1.2544984e-23 7.9152e-05
000200 c1 fd 43 36 92 50 82 37 26 9a 87 17 f8 a1 15 36
       2.9204969e-06 1.5534726e-05 8.763083e-25 2.2297008e-06
000210 84 d3 60 38 8f a8 42 37 79 58 ab 37 2c 4e f2 16
       5.360275e-05 1.1602547e-05 2.0425987e-05 3.9146542e-25
000220 70 27 3a 38 ee bb 1f 38 10 f4 88 37 d3 eb 01 38
       4.4382585e-05 3.8083577e-05 1.6326114e-05 3.0975625e-05
000230 ea f5 9a 38 0b 85 97 36 d4 ca b3 37 a6 27 ba 36
       7.389097e-05 4.515639e-06 2.1432912e-05 5.5478476e-06
000240 a4 9f 82 3a 41 1c 67 37 18 a3 d0 36 ff d8 0a 37
       0.000996579 1.3775251e-05 6.2178697e-06 8.275964e-06
000250 3f 6f 38 36 fe 1f 9d 37 24 d2 a8 33 f6 96 43 36
       2.748289e-06 1.8730756e-05 7.861334e-08 2.9145135e-06
000260 fd 1c 51 37 ec e0 52 33 20 7f 12 33 fa ef 64 37
       1.246412e-05 4.9099e-08 3.4108893e-08 1.3645733e-05
000270 36 77 f2 38 60 78 96 17 3d 5d af 19 c1 fd 81 38
       0.00011561664 9.72391e-25 1.8132235e-23 6.198465e-05
000280 27 02 16 38 6d 26 a1 36 75 24 87 37 64 a7 89 39
       3.576479e-05 4.8026473e-06 1.611023e-05 0.00026255392
000290 eb 8a 11 37 16 a9 2a 38 0d 17 45 38 84 f8 38 39
       8.675018e-06 4.0688632e-05 4.6989928e-05 0.00017640187
0002a0 34 a4 67 37 0c c3 01 39 86 cd 56 17 2d a1 bc 38
       1.38069045e-05 0.0001237506 6.9406536e-25 8.99456e-05
0002b0 70 59 46 2f 4c 1c 3d 37 99 23 08 36 71 9f 78 38
       1.803977e-10 1.1271866e-05 2.02863e-06 5.92763e-05
0002c0 56 3a c4 35 bd 78 14 16 42 ea 53 18 7d 95 88 39
       1.4620116e-06 1.1993443e-25 2.738938e-24 0.0002605132
0002d0 07 e7 92 38 28 c8 df 36 a3 7a 83 33 b2 8c 1e 35
       7.004855e-05 6.669219e-06 6.12247e-08 5.9064325e-07
0002e0 57 8d 18 38 93 98 04 34 2e dd 9e 30 50 ab 83 10
       3.6371257e-05 1.2348964e-07 1.1558876e-09 5.193434e-29
0002f0 89 c4 a2 36 20 31 09 37 73 5c 11 37 57 fa 90 38
       4.850856e-06 8.177274e-06 8.6641985e-06 6.9130845e-05
000300 a8 f5 88 38 79 6a 33 37 86 3b 5b 35 1a 11 69 28
       6.5307424e-05 1.06940215e-05 8.1670476e-07 1.29378065e-14
000310 1e b2 3c 37 ea 08 59 37 c5 9b 54 37 eb db 2c 36
       1.1247144e-05 1.2936283e-05 1.2672453e-05 2.5758006e-06
000320 8b 2e f4 2d 38 2e 42 39 ad 4a 3c 2f 22 99 85 33
       2.7760258e-11 0.000185185 1.712503e-10 6.22115e-08
000330 54 b7 2a 2f 16 37 f7 37 d5 3c 64 38 61 fe 06 37
       1.5526541e-10 2.9470346e-05 5.441609e-05 8.04625e-06
000340 88 7e 07 38 ac e5 5a 33 e2 15 54 35 d5 47 2a 27
       3.230435e-05 5.0965966e-08 7.9008e-07 2.363118e-15
000350 29 b5 74 38 1f a0 b0 35 6b af ee 2f db c3 90 38
       5.8342852e-05 1.3159623e-06 4.341659e-10 6.902936e-05
000360 83 52 e6 19 7c 9b 22 38 ad 56 9a 36 e0 c3 a9 33
       2.3814769e-23 3.8768616e-05 4.599648e-06 7.905305e-08
000370 c6 0b 8f 37 a5 59 3a 34 61 c7 82 14 c5 ee 7f 0f
       1.705241e-05 1.7355212e-07 1.3205287e-26 1.2618456e-29
000380 c1 93 64 1f 56 0e 84 39 3c da 38 17 1f 62 8a 38
       4.8403097e-20 0.00025187683 5.9729057e-25 6.598629e-05
000390 82 87 f2 32 c8 35 e7 32 f3 60 cf 15 03 5a fc 32
       2.823413e-08 2.6916396e-08 8.375959e-26 2.9377594e-08
0003a0 e7 06 60 38 66 27 93 36 63 c5 68 37 d0 0e 85 13
       5.341219e-05 4.385528e-06 1.3874235e-05 3.3588526e-27
0003b0 64 e1 de 32 f0 85 4f 34 f7 09 24 35 cf eb d6 33
       2.5946697e-08 1.9327103e-07 6.110926e-07 1.0008045e-07
0003c0 c8 97 dd 36 7a 46 a6 34 1c 87 b1 37 fb b9 8f 35
       6.603983e-06 3.0971188e-07 2.116296e-05 1.0708458e-06
0003d0 cb 19 6b 3a 42 10 99 33 77 2c c1 36 61 5d 8e 34
       0.0008968382 7.127575e-08 5.7570246e-06 2.6517503e-07
0003e0 de ae 08 32 17 c1 68 36 4e b1 c4 30 2a 2f d1 37
       7.956002e-09 3.4683087e-06 1.431127e-09 2.4936704e-05
0003f0 7e fd 17 37 d8 15 85 34 ac 70 ff 36 75 cf cc 35
       9.059322e-06 2.4789074e-07 7.612709e-06 1.5259562e-06
